weights/stage1_pretrain.pth (torch, 420583 bytes, 31 tensors)

geom_mlp.mlp.0.weight f4 [64, 3]
0	0x3dbca398	0.092108905
1	0x3da5d200	0.08096695
2	0xbef44f64	-0.4771682
3	0xbebeb42c	-0.37246835
4	0x3efbf3a4	0.4920932
5	0xbeb51752	-0.35369354
6	0xbf0d59b6	-0.55215013
7	0x3f097e24	0.537081
8	0x3eda89ab	0.42683157
9	0x3de4bf28	0.11169273
10	0x3caa6948	0.020802155
11	0x3edbae28	0.42906308
12	0x3c6fdf78	0.014640681
13	0xbcd04600	-0.025424004
14	0xbed38e14	-0.41319335
15	0x3e6b6774	0.22988683
16	0xbe8dda58	-0.27705646
17	0xbe79f3bd	-0.24409385
18	0xbdc8887d	-0.09791658
19	0xbe9eb8af	-0.31000277
20	0x3e104795	0.14089806
21	0x3eed3ff3	0.46337852
22	0x3eca6691	0.39531377
23	0x3f01db86	0.5072559
24	0x3d28f9d3	0.041253876
25	0x3ee23dd6	0.44187802
26	0xbd344d47	-0.04401901
27	0xbd6f5c28	-0.058437496
28	0x3d72b5a8	0.059255272
29	0x3dcbfe28	0.09960586
30	0x3dfff06d	0.124970295
31	0x3d4539d3	0.04815085
32	0xbe7b1569	-0.24519886
33	0x3dd28008	0.10278326
34	0x3e1750b8	0.14776886
35	0xbef173a3	-0.47158536
36	0xbe84159a	-0.2579773
37	0x3d40e0e0	0.047089458
38	0x3e5fb420	0.21846056
39	0x3eded49a	0.43521577
40	0xbec391b2	-0.38197094
41	0xbf05cbcd	-0.522641
42	0xbe888ff5	-0.2667233
43	0x3e8468bd	0.2586116
44	0xbef34fb8	-0.47521758
45	0x3e6da6ef	0.23208211
46	0x3eb056bb	0.3444117
47	0x3e87c2a5	0.2651569
48	0xbf03f8ba	-0.515514
49	0x3ef0005b	0.4687527
50	0xbc5cb79e	-0.013471512
51	0xbe04b2c8	-0.12958825
52	0xbec02f8c	-0.37536275
53	0xbf08cea0	-0.53440285
54	0xbd91f580	-0.071269035
55	0xbefbf5ca	-0.4921096
56	0xbe281f1e	-0.1641812
57	0x3efdce62	0.4957152
58	0x3f00afb9	0.5026813
59	0x3d6e7972	0.058221288
60	0xbd9ba189	-0.0759917
61	0x3ef5db59	0.4801891
62	0x3c5fb66e	0.0136543345
63	0x3efb7eae	0.49120086
64	0x3ee399e5	0.4445335
65	0xbf0decc5	-0.55439407
66	0xbed85541	-0.42252544
67	0x3e90f9d0	0.28315592
68	0xbf079438	-0.5296054
69	0xbca9ea68	-0.020741656
70	0xbedc38ae	-0.43011993
71	0x3d72b5f8	0.05925557
72	0xbeb4da73	-0.35322914
73	0x3ed886b7	0.4229028
74	0x3cd13117	0.025536103
75	0x3e27f4f9	0.16402043
76	0x3e83b9a4	0.2572757
77	0xbefb40ea	-0.49072963
78	0x3ee51e4b	0.44749674
79	0x3e18aff1	0.14910866
80	0xbe987f45	-0.297846
81	0xbe9fa8dd	-0.3118352
82	0x3f051cc1	0.51997
83	0x3f0ad733	0.5423462
84	0x3f12d785	0.57360107
85	0x3ecf4d1b	0.40488514
86	0xbebe3b2a	-0.37154514
87	0xbe0e15ba	-0.13875476
88	0x3f017134	0.5056336
89	0x3eb2cf30	0.34923697
90	0xbf09af36	-0.53782976
91	0x3e2bc04a	0.16772571
92	0x3ef40af1	0.47664598
93	0x3edf4da3	0.4361392
94	0x3f04bce5	0.5185073
95	0xbf062a10	-0.5240793
96	0xbefe3bb7	-0.49654934
97	0x3e9237c7	0.2855818
98	0x3e401d85	0.18761261
99	0x3ed1634b	0.40896067
100	0xbd322f84	-0.043502346
101	0xbeb09a26	-0.34492606
102	0xbdbbb7ac	-0.09165892
103	0xbe8f471b	-0.27983937
104	0x3ea9ad95	0.33140245
105	0x3ecb69dc	0.39729202
106	0x3ebd5948	0.3698218
107	0xbece34af	-0.4027457
108	0xbcf6ff9c	-0.03015118
109	0x3e25f014	0.16204864
110	0x3ebbd022	0.3668223
111	0xbe12d965	-0.14340742
112	0x3e60d613	0.21956663
113	0x3eca5b63	0.39522848
114	0xbf0dccc8	-0.55390596
115	0xbea2f01c	-0.31823814
116	0x3f090c86	0.53534734
117	0xbe843d0b	-0.25827822
118	0xbec3c126	-0.38233298
119	0x3ef9df20	0.48803043
120	0xbf1129b5	-0.56704265
121	0x3df312f8	0.118688524
122	0xbed7056e	-0.4199633
123	0xbf0fb2c9	-0.5613218
124	0xbd8dadef	-0.06917941
125	0xbef62fde	-0.48083395
126	0xbe155bc3	-0.14585786
127	0xbe7fa133	-0.24963836
128	0x3d971f45	0.07379011
129	0xbed67510	-0.41886187
130	0x3e04047c	0.12892336
131	0xbe706e30	-0.23479533
132	0xbee3197c	-0.4435538
133	0x3d9a8af1	0.07546032
134	0x3e117185	0.1420346
135	0xbdec4d94	-0.11538234
136	0xbe417644	-0.18892771
137	0xbbc53de0	-0.006019339
138	0xbe45cab3	-0.19315605
139	0xbdb1330c	-0.086523145
140	0x3e2afc9e	0.16697928
141	0xbee41383	-0.44546136
142	0xbed263aa	-0.41091663
143	0x3f094c1b	0.5363175
144	0x3e9c97db	0.30584607
145	0xbecc070d	-0.3984913
146	0xbe7d0000	-0.24707031
147	0x3ec8e278	0.39235282
148	0xbebe6b33	-0.37191162
149	0x3f0a7f52	0.54100525
150	0xbeb17e15	-0.34666505
151	0xbf09f0ad	-0.5388287
152	0xbedf5df6	-0.43626374
153	0x3f09fb67	0.53899235
154	0xbf05e30b	-0.52299565
155	0x3eedc595	0.46439806
156	0x3e6fc7d3	0.2341607
157	0x3e92d619	0.2867897
158	0x3ed760c0	0.42066002
159	0x3e930ed1	0.28722242
160	0x3eaf4e99	0.34239653
161	0xbc8a9720	-0.016917765
162	0x3d24c888	0.040230304
163	0x3ef6d11a	0.48206407
164	0xbe6b08cb	-0.22952573
165	0xbea852d4	-0.32875693
166	0x3f069ad4	0.5258
167	0x3dc526dd	0.09626553
168	0x3f0cf348	0.5505872
169	0x3e4c3bbd	0.19944663
170	0xbd957540	-0.07297754
171	0xbeec6e7e	-0.4617805
172	0xbe26107c	-0.16217226
173	0xbe318428	-0.1733557
174	0xbeed76c9	-0.46379688
175	0xbf11fa26	-0.5702232
176	0x3f120737	0.5704226
177	0x3ee12397	0.43972465
178	0xbe92527f	-0.28578565
179	0x3f137be0	0.57610893
180	0x3eecf3e4	0.46279824
181	0xbf064f33	-0.524646
182	0x3ef80dcb	0.48448023
183	0x3efdcc65	0.49570003
184	0xbe875250	-0.26429987
185	0xbdd95f7b	-0.106139146
186	0xbead6c58	-0.33871722
187	0x3e58fc68	0.21190035
188	0xbf012986	-0.50453985
189	0x3eac4f6e	0.3365435
190	0xbe045020	-0.1292119
191	0x3eed9fa8	0.4641087

geom_mlp.mlp.0.bias f4 [64]
0	0xbe768b10	-0.24076486
1	0x3ead2a39	0.33821276
2	0xbec80d00	-0.39072418
3	0xbef27dd2	-0.47361618
4	0xbf0c77e1	-0.5487042
5	0x3d7b4068	0.06134072
6	0x3f0a8541	0.5410958
7	0xbe3d9997	-0.18515621
8	0xbe643160	-0.2228446
9	0xbed5e390	-0.4177518
10	0x3f0ec5cd	0.5577057
11	0xbf02f9a9	-0.511622
12	0xbeaffe20	-0.3437357
13	0xbe88e65f	-0.2673826
14	0x3efef077	0.49792835
15	0x3e40d373	0.18830661
16	0x3e6a6e71	0.22893693
17	0xbe5a9ac4	-0.21348101
18	0xbedb4a98	-0.42830348
19	0xbebd02ad	-0.36916104
20	0xbebeb44e	-0.37246937
21	0x3ef23472	0.47305638
22	0x3d1b6719	0.03794012
23	0xbf0b6a4b	-0.54459065
24	0xbeb7deeb	-0.3591226
25	0xbe1f44a1	-0.15553524
26	0x3c2fc26e	0.010727508
27	0xbdbe8c1d	-0.09304068
28	0x3eea416e	0.45753044
29	0xbe72bd54	-0.23705035
30	0xbdf337cf	-0.11875879
31	0xbe955136	-0.29163522
32	0x3e7dcdf9	0.24785604
33	0xbe6b7a9a	-0.22995988
34	0xbddf0991	-0.108904965
35	0x3c99aac3	0.018758183
36	0x3ed1d009	0.4097903
37	0xbec9a066	-0.39380187
38	0x3e199285	0.14997299
39	0xbe991f50	-0.29906702
40	0x3eb4b2e1	0.35292724
41	0xbe87dcd7	-0.26535675
42	0x3e5eaa43	0.21744637
43	0x3df2824d	0.11841259
44	0x3de93afd	0.11388204
45	0xbeca2586	-0.39481753
46	0x3e23aa0c	0.15982836
47	0xbf0df891	-0.5545741
48	0x3efa381c	0.48870933
49	0x3eb5bfec	0.35497987
50	0xbe7ee1ca	-0.24890819
51	0xbdf79cf6	-0.12090485
52	0xbe67fcf7	-0.22655092
53	0x3efa8d79	0.4893606
54	0xbe36e44c	-0.17860526
55	0xbf084e31	-0.5324431
56	0xbeae94e6	-0.34097975
57	0xbef2e52b	-0.47440466
58	0xbe7c1881	-0.24618722
59	0x3ede380e	0.4340214
60	0x3eaa39f4	0.3324734
61	0x3bb58fbe	0.005540817
62	0xbe922e11	-0.2855077
63	0xbf1025b5	-0.56307536

geom_mlp.mlp.2.weight f4 [32, 64]
0	0x3b51aa20	0.0031992272
1	0xbdf701af	-0.12060868
2	0x3d71faa4	0.05907692
3	0x3d5b6b90	0.053569376
4	0xbd37a060	-0.04483068
5	0xbde6571e	-0.11247085
6	0xbd33097d	-0.04371022
7	0x3d7261b5	0.059175212
8	0x3dccf630	0.10007894
9	0xbd80c042	-0.0628667
10	0x3df4d0e0	0.11953902
11	0xbc85d548	-0.016337052
12	0xbb926e88	-0.0044687428
13	0x3b44b98b	0.0030017819
14	0x3d888295	0.066655315
15	0x3dc46522	0.09589602
16	0x3bf3f6b0	0.007445179
17	0xbd82d20e	-0.06387721
18	0x3d7646a0	0.060125947
19	0x3dec2e68	0.11532289
20	0x3daf534c	0.085608095
21	0x3d76e383	0.060275566
22	0x3d8ed525	0.06974248
23	0xbd94683a	-0.07246442
24	0x3d9c98ab	0.076463066
25	0xbcecc6af	-0.028903333
26	0xbd464a94	-0.048410967
27	0xbdade4a2	-0.08490874
28	0xbbbd02ef	-0.005768172
29	0x3cb7dacf	0.022443203
30	0x3dae20d8	0.08502358
31	0xbca94181	-0.020661118
32	0x3d9fa10e	0.077943906
33	0x3d89cc4b	0.06728419
34	0x3d5e8151	0.054322544
35	0xbdecb2a0	-0.115575075
36	0xba8c0e1d	-0.0010685358
37	0x3dc342ca	0.095342234
38	0x3d2f7b30	0.04284209
39	0x3dbe32f9	0.09287066
40	0xbcb61325	-0.022225926
41	0x3d6e1ef7	0.058135
42	0xbdb24d35	-0.08706132
43	0xbd3d2baa	-0.04618422
44	0x3c701320	0.014652997
45	0xbd5bb4ec	-0.053639337
46	0x3da633dc	0.0811536
47	0xbdd26989	-0.102740355
48	0x3d3f2fa0	0.046676278
49	0xbcc7ddda	-0.02439778
50	0xbc42ab1d	-0.011881617
51	0xbdd4b54d	-0.10386143
52	0xbcf45ece	-0.029830363
53	0xbdc9f43f	-0.09861039
54	0xbdaeb1a3	-0.08529975
55	0xbdcfdaff	-0.10149192
56	0x3d665597	0.05623397
57	0x3d91bb80	0.07115841
58	0x3c4f31cc	0.01264615
59	0xbc37b352	-0.011212187
60	0xbd9e0a27	-0.0771678
61	0x3d55b85a	0.052177764
62	0xbdd01f6a	-0.10162242
63	0x3d7382e4	0.059451
64	0x3cabbe38	0.020964727
65	0x3d6a9cf4	0.05727859
66	0x3d6d6daa	0.057965912
67	0x3cbe9820	0.023265898
68	0xbda4b144	-0.08041623
69	0xbc55478c	-0.013017546
70	0x3d4acadc	0.049509868
71	0x3de9a65e	0.11408685
72	0x3ce12a3a	0.027485956
73	0x3b13dcc8	0.0022562016
74	0x3d575757	0.05257353
75	0x3dc5280a	0.096267775
76	0xbd99bb6e	-0.075064525
77	0xbde33e00	-0.1109581
78	0xbde11e55	-0.109921135
79	0x3d77c505	0.060490627
80	0xbb82a73b	-0.0039872206
81	0x3dc59960	0.096483946
82	0xbddf28c6	-0.10896449
83	0x3dcd64ee	0.100290164
84	0x3d2b1757	0.041770305
85	0x3d827189	0.06369311
86	0x3d43f0a6	0.047836922
87	0xbd9f4a6e	-0.07777868
88	0x3dd1b8cc	0.10240325
89	0xbba09c30	-0.0049014315
90	0xbd0c9a0a	-0.03432659
91	0xbc985186	-0.01859356
92	0xbd2d3b15	-0.042292673
93	0xbd890cd0	-0.06691897
94	0xbd196032	-0.037445255
95	0x3dc667a8	0.096877396
96	0x3d9845aa	0.07435162
97	0x3d53ce42	0.051710375
98	0xbd71fe6a	-0.05908052
99	0xbdeb8b29	-0.11501152
100	0xbd88cee6	-0.06680088
101	0x3d442739	0.04788897
102	0x3dccf16e	0.100069866
103	0x3df5d6eb	0.12003883
104	0xbdba1286	-0.09085564
105	0x3b23a21c	0.002496845
106	0xbd0480e2	-0.032349475
107	0x3c9d1bc6	0.019178282
108	0xbc87ffaf	-0.016601412
109	0x3db3bb40	0.087759495
110	0x3d96ca01	0.07362748
111	0x3d569e4f	0.05239707
112	0x3c73db87	0.014883882
113	0x3d60c19a	0.054872133
114	0xbdae0d4f	-0.08498632
115	0x3cff32c5	0.031152138
116	0x3dd7cc76	0.10537045
117	0x3d3971df	0.04527461
118	0xbdffddc2	-0.12493469
119	0xbd62e61c	-0.05539523
120	0xbdc385e4	-0.09547022
121	0x3cfa8ca0	0.030584633
122	0xbcbd68de	-0.023121294
123	0x3d8ff094	0.070283085
124	0xbdd06d48	-0.10177094
125	0x3df74d26	0.12075262
126	0xbd12ddc0	-0.03585601
127	0xbcd9b927	-0.026577545
128	0xbd04b48c	-0.032398745
129	0xbdb7eb05	-0.08980373
130	0xbdbbbad6	-0.091664955
131	0x3da9533a	0.08267827
132	0xbc90a5e8	-0.017657235
133	0x3df93281	0.12167836
134	0x3dad009f	0.08447384
135	0xbc39c53a	-0.011338526
136	0xbd0c7699	-0.03429279
137	0x3db575ee	0.08860384
138	0xbd5c80c0	-0.053833723
139	0xbc5f6b70	-0.013636455
140	0xbd095824	-0.033531323
141	0x3d04b984	0.032403484
142	0xbd03a697	-0.032141294
143	0x3d7958f4	0.060875848
144	0x3dc379d6	0.09544723
145	0x3dc44c58	0.09584874
146	0x3d72dc54	0.059292153
147	0xbccb6b33	-0.02483139
148	0x39a57980	0.00031561777
149	0xbdfa6bb6	-0.122275755
150	0x3d86e0d5	0.06585852
151	0x3d9f8f18	0.07790965
152	0x3d50603a	0.05087302
153	0xbdb61b4f	-0.088919275
154	0x3de0ce11	0.10976804
155	0xbd117972	-0.03551621
156	0x3df85143	0.121248744
157	0xbdeeaa7d	-0.11653612
158	0xbda79f30	-0.081846595
159	0xbd120da6	-0.035657547
160	0xbd250ac5	-0.040293474
161	0x3c20e362	0.009819837
162	0x3d216f98	0.039413065
163	0xbdf84af9	-0.12123675
164	0xba895052	-0.0010476208
165	0x3df105cc	0.11768684
166	0xbc1184cf	-0.008881762
167	0xbcb1a948	-0.021687165
168	0xbdf98a3b	-0.121845685
169	0xbd163066	-0.03666725
170	0xbc6690c6	-0.014072603
171	0xbda999cb	-0.08281287
172	0x3b89e105	0.0042077326
173	0xbde95d48	-0.11394745
174	0xbd0379d0	-0.03209859
175	0xbd1332df	-0.035937186
176	0xbdc74ff1	-0.097320445
177	0xbd9a028f	-0.07520019
178	0x3a68b37c	0.0008876843
179	0x3df22600	0.11823654
180	0x3dcc6aad	0.09981284
181	0x3dcca90a	0.09993179
182	0xbcd8fde5	-0.026488254
183	0xbc8255b3	-0.015910005
184	0x3df28f77	0.1184377
185	0x3daf65c2	0.08564331
186	0xbd6ba25b	-0.05752788
187	0x3d8dce0d	0.06924067
188	0xbc7d873c	-0.015474137
189	0xbddf4a49	-0.10902841
190	0x3bea46b8	0.0071495436
191	0x3dd95724	0.10612324
192	0xbde367b2	-0.11103763
193	0xbdfa49c5	-0.12221102
194	0x3d08620c	0.03329663
195	0xbddc64fc	-0.10761449
196	0x3dd2d910	0.10295308
197	0x3d41662b	0.047216576
198	0x3bb9777f	0.005659997
199	0xbc94423c	-0.01809799
200	0x3d996959	0.074907966
201	0x3df59cde	0.11992811
202	0x3da92c7a	0.08260436
203	0xbc6d2ea8	-0.014476456
204	0x3d17ecfc	0.03709124
205	0x3dcaec10	0.099083066
206	0xbdad1ac6	-0.08452372
207	0xbd1cbe95	-0.03826769
208	0x3dfdbaa6	0.12389116
209	0x3ddbd6b8	0.10734314
210	0x3cb472b0	0.022027344
211	0x3c161957	0.009161315
212	0xbdf4be9e	-0.1195042
213	0xbb3b71c3	-0.0028601743
214	0x3a79dd9c	0.00095316186
215	0xbd9b7f98	-0.07592696
216	0x3d888d28	0.066675484
217	0xbdc65e7b	-0.096859895
218	0xbde69b2e	-0.11260067
219	0xbb9b2b4c	-0.004735386
220	0xbdeaa016	-0.11456315
221	0x3beb635e	0.0071834764
222	0x3be6a5c3	0.0070388033
223	0xbc42f226	-0.011898553
224	0x3d890d23	0.06691959
225	0xbd9112f3	-0.070836924
226	0xbdb10838	-0.08644146
227	0x3dae5b8f	0.08513557
228	0x3ddc2b4a	0.10750444
229	0x3d834e0e	0.06411372
230	0x3b57b360	0.0032913312
231	0x3ce4dcb1	0.027937265
232	0x3df3a1b3	0.11896076
233	0xbdc22ec1	-0.09481574
234	0xbde82fa2	-0.1133721
235	0x3d23e422	0.040012486
236	0xbd904888	-0.07045084
237	0x3db7366e	0.089459285
238	0xbd747c41	-0.05968881
239	0xbdad46f2	-0.08460797
240	0x3da391bb	0.0798678
241	0xbc507e5a	-0.012725437
242	0xbdd73e4b	-0.10509928
243	0xbdd03e4a	-0.10168131
244	0xbd1b178a	-0.037864245
245	0xbd869d70	-0.065729976
246	0xbcea360f	-0.02859023
247	0x3de1848a	0.11011608
248	0x3c11bdce	0.008895351
249	0xbdd0af78	-0.10189718
250	0xbc7aca97	-0.01530709
251	0x3d754d6e	0.059888296
252	0xbde66adc	-0.112508506
253	0xbd673147	-0.05644348
254	0xbca89670	-0.020579547
255	0xbd1fe124	-0.03903307

geom_mlp.mlp.2.bias f4 [32]
0	0xbdc8a01a	-0.09796162
1	0xbc91269b	-0.017718604
2	0xbd3303e8	-0.043704897
3	0xbd397dfd	-0.045286167
4	0xbdf0c2a3	-0.11755874
5	0x3d8f8dd9	0.07009477
6	0x3db0b9fa	0.08629222
7	0xbda22184	-0.07916549
8	0x3cd28d21	0.025702061
9	0x3df4d111	0.11953939
10	0x3da87507	0.08225446
11	0xbd131645	-0.03590991
12	0x3dd59452	0.104286805
13	0x3de34ef1	0.11099041
14	0xbd7fa88a	-0.06241659
15	0xbc9d7966	-0.019222926
16	0xbc2fdc01	-0.010733605
17	0xbd83ec75	-0.06441585
18	0xbdbb8325	-0.09155873
19	0xbdd6624f	-0.104679696
20	0x3c90f0ca	0.017692942
21	0xbd610c17	-0.05494317
22	0x3a49b6ea	0.0007694798
23	0xbc95fce5	-0.018309066
24	0xbdc1764d	-0.09446392
25	0xbddd8c38	-0.1081776
26	0xbd6b5883	-0.05745746
27	0x3d242ac2	0.04007984
28	0x3d09e4cd	0.033665467
29	0x3d21d7e8	0.039512545
30	0xbdf48c73	-0.11940851
31	0x3d264fb4	0.040603355

geom_mlp.mlp.3.weight f4 [32]
0	0x3f80011c	1.0000339
1	0x3f7fcec2	0.9992486
2	0x3f802587	1.0011452
3	0x3f7fb737	0.9988894
4	0x3f80275d	1.0012013
5	0x3f7fa85c	0.9986627
6	0x3f802624	1.001164
7	0x3f7fb6b6	0.9988817
8	0x3f8003e6	1.000119
9	0x3f80213c	1.0010142
10	0x3f7fa9d4	0.9986851
11	0x3f7fb19e	0.998804
12	0x3f802a7e	1.0012968
13	0x3f8026b3	1.001181
14	0x3f800ef6	1.0004566
15	0x3f8003ef	1.00012
16	0x3f801a8e	1.0008104
17	0x3f8025b3	1.0011505
18	0x3f80285e	1.0012319
19	0x3f7fb472	0.9988471
20	0x3f7fc408	0.99908495
21	0x3f7fdaaa	0.9994303
22	0x3f80089e	1.000263
23	0x3f802094	1.0009942
24	0x3f800979	1.0002891
25	0x3f8025a2	1.0011485
26	0x3f7fb107	0.998795
27	0x3f8020ae	1.0009973
28	0x3f80278f	1.0012072
29	0x3f7ff4ae	0.99982727
30	0x3f8026bc	1.0011821
31	0x3f800a42	1.000313

geom_mlp.mlp.3.bias f4 [32]
0	0x3a3b2dc4	0.00071403035
1	0xba4b29ac	-0.0007750045
2	0xba981ba8	-0.0011604922
3	0x3aa0f174	0.001227899
4	0xba865804	-0.0010249619
5	0x3aac751f	0.0013157463
6	0xba986ce7	-0.0011629135
7	0x3a91f1cd	0.0011134684
8	0xb9056b4d	-0.00012723841
9	0x39c9c586	0.00038484874
10	0xbaaa6858	-0.0013001068
11	0xbaa5df3f	-0.0012655033
12	0xb991bd24	-0.00027797476
13	0x3a895eff	0.0010480582
14	0x3aaf31ac	0.0013366244
15	0xb89eaf10	-7.566635e-05
16	0x3a39f7ec	0.0007094133
17	0x3a89c7d1	0.001051182
18	0x38b3493a	8.549025e-05
19	0x3a966742	0.0011474865
20	0xba69aaac	-0.0008913677
21	0xba6ce2df	-0.0009036492
22	0xba9806fe	-0.0011598764
23	0xbaa90179	-0.0012894116
24	0xba9cd1bf	-0.0011964365
25	0xbaa5bc74	-0.0012644664
26	0x3aa05fed	0.0012235619
27	0x3aa391bd	0.0012479346
28	0x3a7a3e31	0.00095460104
29	0xbaabc6d9	-0.0013105526
30	0x3a9a5d3c	0.0011777054
31	0x37644e49	1.3608086e-05

appear_backbone.conv.0.weight f4 [16, 3, 3, 3]
0	0xbe0614c1	-0.13093854
1	0x3c63133b	0.013859565
2	0xbe1e6ac5	-0.15470417
3	0x3e2cfb31	0.16892697
4	0xbd20404b	-0.039123815
5	0x3cfb70e7	0.030693484
6	0x3e11a259	0.14222087
7	0xbd6f51a0	-0.058427453
8	0x3dcb19fe	0.09917067
9	0xbda13f6c	-0.07873425
10	0xbbd88041	-0.006607086
11	0xbdd982b3	-0.10620632
12	0x3d3bfe68	0.045896918
13	0xbd20a27d	-0.03921746
14	0x3e3bea40	0.18351078
15	0xbddeec97	-0.1088497
16	0xbe32ee36	-0.17473683
17	0x3e443728	0.19161665
18	0x3e417a43	0.18894295
19	0x3d78eba7	0.06077161
20	0xbd65fd03	-0.056149494
21	0x3e12f434	0.14350969
22	0x3c16e2c1	0.009209336
23	0x3df6e8a6	0.12056093
24	0xbe12b395	-0.14326318
25	0x3d54d10d	0.05195718
26	0xbc7af73a	-0.0153177325
27	0x3d32aa0e	0.043619208
28	0xbd46fc1c	-0.048580274
29	0x3d77b7cf	0.060478028
30	0x3ca2a016	0.019851726
31	0x3e0f32d7	0.13984238
32	0x3da2a562	0.079417005
33	0x3dac8871	0.08424462
34	0x3cb567c9	0.022144215
35	0x3e0f3e16	0.13988528
36	0xbdac9cf4	-0.08428374
37	0xbdcd09b7	-0.100116186
38	0xbe18d440	-0.14924717
39	0x3e253689	0.16134085
40	0x3bcb3c74	0.006202275
41	0xbc04cfe9	-0.00810621
42	0x3e06b437	0.13154684
43	0x3d9f521e	0.077793345
44	0x3db8b146	0.09018187
45	0x3e41ccef	0.18925832
46	0x3e2dc6c7	0.16970359
47	0xbe29f55c	-0.16597503
48	0x3ddaf97f	0.10692119
49	0xbe24b450	-0.16084409
50	0xbe294998	-0.1653198
51	0xbcdc6d5d	-0.026907617
52	0x3e208e3e	0.15679261
53	0xbd30c4d9	-0.04315648
54	0x3c0bbc27	0.008528746
55	0xbdd14ce4	-0.10219744
56	0x3c900742	0.017581586
57	0xbe070ad1	-0.1318772
58	0xbce74997	-0.028233333
59	0x3c24e6e2	0.010064812
60	0x3da75d2a	0.081720665
61	0xbe20897e	-0.15677449
62	0xbdac207d	-0.08404634
63	0x3dee5da1	0.11638952
64	0xbe168669	-0.14699711
65	0x3e3b1a7f	0.18271826
66	0xbd80f5c5	-0.06296877
67	0x3e08e9ac	0.13370389
68	0x3d3b3d4d	0.045712758
69	0xbdf489c8	-0.11940342
70	0x3d01d474	0.03169675
71	0x3d8e2937	0.06941455
72	0x3e0002f4	0.12501127
73	0xbd54c9af	-0.051950153
74	0x3e0fff0e	0.1406214
75	0xbe1e35fe	-0.15450284
76	0x3e429899	0.19003524
77	0xbdb1827e	-0.086674675
78	0xbe4279a7	-0.18991719
79	0xbe24b00d	-0.16082783
80	0xbdd6d3ed	-0.104896404
81	0x3d3b4367	0.045718577
82	0xbcde36d7	-0.027125759
83	0x3db697e3	0.08915689
84	0x3cc7bead	0.024382913
85	0x3deb860f	0.11500179
86	0x3da4ddaf	0.08050095
87	0xbd19c9db	-0.03754602
88	0xbde03842	-0.1094823
89	0x3d9e5cd1	0.07732547
90	0xbe095903	-0.13412862
91	0x3ddc2623	0.107494615
92	0x3e2d38b6	0.16916165
93	0x3dc37bcd	0.095450975
94	0xbe296961	-0.16544105
95	0x3db870f1	0.09005917
96	0xbd91d6d9	-0.07121057
97	0xbd988dbc	-0.07448909
98	0xbd94fcd2	-0.07274784
99	0x3d9477a4	0.07249382
100	0x3c925713	0.017863786
101	0x3e2a6a71	0.16642167
102	0xbe1e064b	-0.15432088
103	0xbdabbb0a	-0.08385284
104	0xbe2b9a15	-0.16757996
105	0xbde858f2	-0.1134509
106	0xbdcc03cf	-0.09961664
107	0xbe2a27ee	-0.16616794
108	0xbe30a732	-0.1725128
109	0xbc730c46	-0.014834469
110	0xbdf15d5c	-0.11785385
111	0x3e35a4b6	0.17738613
112	0xbe0c5003	-0.13702397
113	0xbe4251b6	-0.18976483
114	0xbd7dd7c3	-0.061973345
115	0xbc8d6381	-0.017259361
116	0x3da4ba17	0.08043306
117	0xbddd7775	-0.108138
118	0xbcc01fef	-0.023452727
119	0x3e249ee3	0.16076235
120	0xbe2693e1	-0.16267349
121	0xbde506e7	-0.11182957
122	0xbcf183dd	-0.029481823
123	0x3d9f3bd7	0.077750854
124	0xbdef6d4b	-0.11690768
125	0x3dcb67e2	0.099319234
126	0xbdcb07e7	-0.099136166
127	0xbe3d3101	-0.18475725
128	0xbe1c66b3	-0.15273552
129	0xbdbbd35b	-0.09171172
130	0xbc14c0ea	-0.009079197
131	0xbc228046	-0.009918278
132	0xbe403636	-0.1877068
133	0x3d836745	0.064161815
134	0xbe09884b	-0.13430898
135	0x3e158212	0.14600399
136	0x3dfc03c2	0.12305404
137	0xbd87d57e	-0.06632517
138	0xbd82634e	-0.06366597
139	0x3cc097a6	0.023509812
140	0x3ce9ff43	0.028564101
141	0xbd800798	-0.062514484
142	0x3d85da6a	0.065358
143	0xbd8655d6	-0.06559341
144	0x3e174000	0.14770508
145	0x3deede4f	0.11663496
146	0x3e334feb	0.17510955
147	0xbb656859	-0.0035004823
148	0xbd9a4ff2	-0.075347796
149	0x3c9e076a	0.019290645
150	0xbe1b127d	-0.15143771
151	0xbd1e88d9	-0.038704727
152	0xbcb4d320	-0.022073328
153	0x3cafb62c	0.021449171
154	0xbd0319f6	-0.03200718
155	0xbe41126f	-0.18854688
156	0x3bec77e7	0.007216442
157	0xbe0302dd	-0.12794061
158	0xbddbdd8b	-0.10735615
159	0xbe36a7d8	-0.17837465
160	0x3d8be50f	0.06830799
161	0xbbbc7fcf	-0.0057525407
162	0x3b207c24	0.0024488056
163	0xbd42ab2e	-0.04752653
164	0x3d6d3617	0.057912912
165	0xbe29fedb	-0.16601126
166	0x3de604c0	0.11231375
167	0xbdf0b722	-0.1175368
168	0xbe012528	-0.1261183
169	0x3db6a274	0.08917704
170	0xbe257d12	-0.16160992
171	0x3d3aab2e	0.045573406
172	0x3c8e9aa4	0.017407723
173	0xbe3f3910	-0.18674111
174	0xbe207343	-0.15668969
175	0x3dff1940	0.12455988
176	0xbe25471c	-0.16140407
177	0xbdeb1439	-0.114784665
178	0xbe270d52	-0.16313675
179	0xbe2619ca	-0.16220775
180	0x3d307bbc	0.043086752
181	0xbdc1e930	-0.09468305
182	0x3e11ecf4	0.14250547
183	0x3de7c67c	0.11317155
184	0x3e02a3d7	0.12757812
185	0xbe358925	-0.17728098
186	0xbdf968de	-0.12178205
187	0xbd5fd044	-0.054641977
188	0xbe0435d9	-0.12911166
189	0xbcf99a79	-0.030469166
190	0xbe2df64f	-0.1698849
191	0x3d9e7d4f	0.077387445
192	0xbdff049a	-0.124520496
193	0x3ce9fa20	0.028561652
194	0x3e2e47d8	0.17019594
195	0xbdb89463	-0.090126775
196	0xbe1a11e2	-0.15045884
197	0x3d9bfc97	0.07616537
198	0xbe110c38	-0.14164817
199	0xbe1b5d73	-0.15172367
200	0xbe060e1c	-0.1309132
201	0xbcdf4165	-0.027252862
202	0xbdce8461	-0.10083843
203	0x3e0ea62e	0.1393058
204	0xbdc0b535	-0.094095625
205	0xbe10c00b	-0.14135759
206	0x3e198219	0.14991035
207	0xbe1261a8	-0.14295065
208	0xbe362a3a	-0.17789546
209	0xbe370a17	-0.17874943
210	0xbd8e7368	-0.06955606
211	0x3bed1ad5	0.0072358646
212	0x3e3e089d	0.18557973
213	0xbe244790	-0.16042924
214	0x3cb09441	0.021555068
215	0xbde61d22	-0.112360254
216	0xbe31f9af	-0.17380403
217	0x3d915496	0.070962116
218	0xbbe4ab03	-0.006978394
219	0xbcc32bdb	-0.023824623
220	0xbd9714b8	-0.07376999
221	0xbcb3a373	-0.021928525
222	0x3cf78db7	0.030218942
223	0x3d884617	0.066539936
224	0x3e0a0cc4	0.13481432
225	0xbc9bf0bb	-0.019035688
226	0xbcc04f13	-0.023475206
227	0xbd9a0540	-0.075205326
228	0x3d079fcb	0.033111375
229	0x3e1b8ed6	0.15191206
230	0x3d0e6ab8	0.034769744
231	0xbd14a4ea	-0.036290087
232	0x3d0ba975	0.034097154
233	0xbd80f661	-0.06296993
234	0x3db0922f	0.08621632
235	0xbd4aaba8	-0.04948011
236	0x3dddbdfc	0.10827252
237	0xbdd92f84	-0.10604766
238	0x3dc11c12	0.09429182
239	0x3e007167	0.1254326
240	0x3de49229	0.1116069
241	0xbe256aed	-0.1615407
242	0x3d8b2dcf	0.06795847
243	0x3d3758ae	0.044762306
244	0xbe1754ad	-0.14778395
245	0xbd6fb5a2	-0.058522828
246	0xbe211ead	-0.15734358
247	0x3d83d070	0.06436241
248	0xbcf7db71	-0.030256005
249	0xbc88b417	-0.016687436
250	0xbd16db20	-0.036830068
251	0x3dac0fe4	0.084014684
252	0x3e280fac	0.16412228
253	0x3e25a63f	0.16176699
254	0xbe1b0137	-0.15137182
255	0xbc8dd497	-0.017313285

appear_backbone.conv.0.bias f4 [16]
0	0xbb25aa56	-0.002527853
1	0xbd2b53d4	-0.04182799
2	0xbde225f2	-0.11042394
3	0xbe1e739e	-0.15473792
4	0x3befc034	0.0073166136
5	0xbe146ea5	-0.14495333
6	0x3e295623	0.16536765
7	0xbd363511	-0.0444842
8	0xbc76a610	-0.015054241
9	0x3e31d29d	0.17365499
10	0xbd8af234	-0.06784478
11	0x3d73d68c	0.05953078
12	0xbc9892ba	-0.018624652
13	0xbd75ae0a	-0.05998043
14	0xbdde3289	-0.108494826
15	0xbb9bc778	-0.004754003

appear_backbone.conv.2.weight f4 [32, 16, 3, 3]
0	0x3d498bc9	0.049205575
1	0x3c8b684f	0.017017512
2	0x3d42ecf4	0.047589257
3	0xbd339819	-0.043846224
4	0xbcd85963	-0.02640981
5	0x3d7f37f1	0.06230921
6	0xbd8f24a0	-0.069894075
7	0x3d1f8560	0.038945556
8	0x3da14f9c	0.078765124
9	0xbd1ebe65	-0.038755793
10	0x3c1f3067	0.00971613
11	0x3b14e19b	0.002271748
12	0xbcb85df6	-0.022505742
13	0x3d4a0c4b	0.04932813
14	0xbcb320a5	-0.021866152
15	0x3ca5ab70	0.02022335
16	0xbd98f17a	-0.07467933
17	0xbd894827	-0.06703215
18	0x3b49436c	0.0030710353
19	0xbd964b1f	-0.07338547
20	0xbda6cc12	-0.08144392
21	0x3d54d5d4	0.051961735
22	0xbd0469bc	-0.0323274
23	0xbd03c30b	-0.03216843
24	0x3c073c22	0.008254083
25	0x3c7bd3b2	0.015370296
26	0xbda9c753	-0.08289971
27	0x3d0efcdf	0.034909125
28	0xbd5c9c4d	-0.053859998
29	0xbda02313	-0.0781919
30	0xbd70eab7	-0.05881759
31	0xbd08771d	-0.03331672
32	0xbc9dd0db	-0.01926463
33	0x3d9db2c5	0.07700113
34	0x3c5db572	0.013532029
35	0x3d490ac7	0.049082544
36	0x3d899367	0.06717568
37	0xbda6ca61	-0.081440695
38	0x3c81b8e4	0.015835233
39	0xbbd0473b	-0.0063561476
40	0xbd02841e	-0.031864278
41	0x3da1329e	0.078709826
42	0xbcff9727	-0.031200005
43	0xbd3571bf	-0.04429793
44	0xbcda8537	-0.02667485
45	0xbd3e0e72	-0.046400495
46	0xbc9a3a5e	-0.01882666
47	0xbbbd532c	-0.005777737
48	0xbc13935a	-0.009007299
49	0x3d950216	0.072757885
50	0x3b9831d0	0.00464461
51	0x3d17c5c1	0.037053827
52	0xbd4e94f2	-0.050435014
53	0x3cd5c37e	0.026094195
54	0xbd7575b3	-0.0599267
55	0xbc2ec67c	-0.01066744
56	0xbda7a4ce	-0.08185731
57	0xbc8d0659	-0.01721494
58	0x3d919d21	0.07110048
59	0x3c044606	0.0080733355
60	0x3d93a282	0.0720873
61	0xbc6becf8	-0.0143997595
62	0x3d65d6a8	0.056112915
63	0x3caf94e1	0.021433296
64	0x3d275378	0.040851086
65	0x3d753543	0.059865247
66	0xbd5656ec	-0.05232899
67	0xbb57abf3	-0.0032908886
68	0xbd646824	-0.05576338
69	0xbd09843e	-0.03357338
70	0xbc128834	-0.008943606
71	0x3d28cf2a	0.041213192
72	0x3d427a2b	0.04747979
73	0x3daae4ed	0.083444454
74	0x3cc0de2a	0.023543436
75	0x3cf1e3c6	0.029527556
76	0x3d043b6c	0.03228323
77	0xbd694942	-0.05695463
78	0xbcf9bf1f	-0.030486641
79	0xbcaa823a	-0.02081405
80	0xbbbc1d24	-0.0057407785
81	0xbd6d70ab	-0.057968777
82	0xbd548a8a	-0.051889934
83	0x3d917cf3	0.0710391
84	0x3d265b97	0.04061469
85	0x3da0ab86	0.078452155
86	0x3a8d62c3	0.001078688
87	0xbcdff1e0	-0.027337015
88	0xbc29df87	-0.0103682345
89	0x3d0e09a7	0.034677174
90	0xbd4bf29a	-0.04979191
91	0x3cbe3df4	0.0232229
92	0x3cf1a28d	0.029496456
93	0xbc9a9f8a	-0.018874902
94	0xbc2204e3	-0.00988886
95	0xbd1c1cc6	-0.038113378
96	0xbd008367	-0.031375315
97	0xbd8e2c47	-0.06942039
98	0x3d1ad1f2	0.037797876
99	0xbcbc0558	-0.022951767
100	0x3d74fe67	0.05981293
101	0x3d476ef1	0.048689786
102	0x3d366e73	0.044538926
103	0xbd812b2d	-0.06307063
104	0xbd063aa0	-0.032770753
105	0x3da2c95e	0.07948564
106	0xbd9fbd67	-0.077997975
107	0x3cc82e4b	0.024436137
108	0xbd7c9bc9	-0.061672006
109	0x3da4d9ca	0.080493525
110	0x3d72d698	0.059286684
111	0xbd5454ff	-0.05183887
112	0x3d85ed27	0.06539374
113	0xbd31ab70	-0.043376386
114	0xbd2ac4f3	-0.04169173
115	0x3d01a883	0.031654846
116	0x3d326be7	0.043559935
117	0x3ca1a8fe	0.019733902
118	0x3d8267bb	0.06367441
119	0x3d552063	0.05203284
120	0x3cbc98d0	0.023022085
121	0x3d246661	0.0401367
122	0x3d454f6f	0.048171457
123	0x3d7bb2bc	0.06144975
124	0x3c870b51	0.016484888
125	0xbcd45a2b	-0.025921902
126	0x3caba186	0.020951044
127	0x3d9cfe92	0.07665743
128	0xbd3fa10d	-0.04678445
129	0x3c2b984b	0.010473321
130	0xbb7ea45a	-0.0038855285
131	0x3d3d9cfd	0.046292294
132	0x3d349e45	0.04409625
133	0x3d44506c	0.04792826
134	0x3d992ee6	0.07479648
135	0xbcd3b9ed	-0.025845492
136	0xbb3ac39b	-0.0028497938
137	0x3cab3598	0.020899579
138	0xbd1b41ab	-0.037904423
139	0xbc8f39f7	-0.017483694
140	0x3b6abdfb	0.0035818804
141	0xbc61b778	-0.0137766525
142	0xbc930575	-0.017946938
143	0xbc47de16	-0.0121989455
144	0xbba4e763	-0.0050324663
145	0x3aca4749	0.0015432622
146	0x3d02e072	0.03195233
147	0x3c761d89	0.01502169
148	0x3c76ce86	0.015063887
149	0xbca78009	-0.020446794
150	0x3d7dbe78	0.061949223
151	0xbcfaad40	-0.03060019
152	0x3bb13819	0.0054082987
153	0x3d8dda19	0.069263645
154	0x3d847ad4	0.0646874
155	0xbd395178	-0.04524371
156	0xbd95f59f	-0.07322239
157	0x3cd220db	0.025650432
158	0xbda22449	-0.07917077
159	0x3d60c89f	0.054878827
160	0xbd044106	-0.032288574
161	0x3c3bf845	0.011472766
162	0x3daa33e6	0.0831068
163	0x3d54aee5	0.051924605
164	0xbd0ff2c8	-0.035143644
165	0x3b849a9c	0.004046751
166	0x3d67da7c	0.056604847
167	0x3d0396bb	0.03212617
168	0x3c628a89	0.013826975
169	0x3d318380	0.0433383
170	0xbd89f9b2	-0.06737079
171	0xbd755c64	-0.059902564
172	0xbcb6dfb0	-0.02232346
173	0x3d4b106a	0.0495762
174	0xbd97bc2c	-0.07408938
175	0x3c9303b1	0.017946096
176	0x3d8b7276	0.06808941
177	0xbcaced9c	-0.021109395
178	0x3da84843	0.08216908
179	0x3d74487c	0.05963944
180	0x3da0ed6d	0.078577854
181	0x3b77d266	0.0037814616
182	0x3cbe6317	0.02324061
183	0x3d1bb448	0.038013726
184	0x3da7bf40	0.08190775
185	0x3bf548a9	0.0074854684
186	0x3b90f37c	0.004423557
187	0xbc35caed	-0.011095745
188	0xbd951d55	-0.07280985
189	0xbc774746	-0.0150926765
190	0xbcf0fdc4	-0.02941788
191	0xbd6250fe	-0.05525302
192	0xbd6a267b	-0.057165604
193	0x3d709216	0.05873307
194	0x3ca93b0c	0.020658039
195	0x3d96c423	0.07361629
196	0xbd800477	-0.062508516
197	0xbda8725f	-0.082249396
198	0x3cbfca39	0.023411857
199	0xbd38d75b	-0.045127254
200	0x3b400498	0.0029299613
201	0xbd52d920	-0.051476598
202	0x3ca29ab2	0.019849155
203	0xbd992efb	-0.07479664
204	0xbd9e2694	-0.07722202
205	0xbcb62e4a	-0.02223887
206	0x3da34aa7	0.07973223
207	0x3d8dfb84	0.069327384
208	0x3c8ffefe	0.017577644
209	0xbd852e66	-0.065029904
210	0x3c586b06	0.01320911
211	0x3d7fd70c	0.062460944
212	0xbc305368	-0.010762073
213	0x3d169584	0.036763683
214	0x3c3a3374	0.011364806
215	0x3d103068	0.035202414
216	0xbc9c7c20	-0.019102156
217	0xbce59250	-0.028023869
218	0xbd1fc42b	-0.03900544
219	0x3daa9737	0.08329623
220	0xbcc810dc	-0.024422102
221	0x3d781a54	0.060571983
222	0xbd837f6c	-0.06420788
223	0xbd944dd0	-0.07241404
224	0xbcae37c6	-0.02126683
225	0xbd1cd030	-0.03828448
226	0xbc8ee8b9	-0.017444955
227	0x3cdcf961	0.026974382
228	0xbd29ed76	-0.041486226
229	0x3d4ca757	0.049964275
230	0x3b443d1b	0.0029943648
231	0x3d11f7b0	0.035636604
232	0xbc97c25c	-0.018525295
233	0x3d4e883d	0.050422896
234	0xbda30896	-0.07960622
235	0x3d1a0077	0.0375981
236	0xbd8a1103	-0.06741526
237	0xbd8cfa35	-0.06883661
238	0xbd196bee	-0.037456445
239	0x3d9b3faa	0.07580502
240	0x3da13e28	0.078731835
241	0xbd91b175	-0.07113925
242	0xbd18bd65	-0.037289996
243	0xbb848805	-0.004044535
244	0x3c93e346	0.018052708
245	0xbd27cb9d	-0.040965665
246	0xbd0c5fd9	-0.034271095
247	0x3ca397d1	0.019969853
248	0xbc9690f5	-0.018379668
249	0x3c23c967	0.0099967485
250	0xbd37fa05	-0.04491617
251	0x3d85da3e	0.06535767
252	0x3c49d5df	0.012319057
253	0xbd2eb7a6	-0.04265561
254	0xbd3f19e3	-0.046655547
255	0xbda12325	-0.078680314

appear_backbone.conv.2.bias f4 [32]
0	0x3c8fef81	0.017570259
1	0x3d1dc56d	0.038518358
2	0x3d9a973a	0.075483754
3	0xbd49f2a9	-0.049303684
4	0x3d9cc56b	0.07654842
5	0x3cf97763	0.030452436
6	0x3c833104	0.016014583
7	0xbd821236	-0.0635113
8	0xbd07d32a	-0.033160366
9	0x3d2d46b1	0.042303745
10	0x3cad20f7	0.021133883
11	0xbc6a623b	-0.0143056465
12	0xbd63381e	-0.05547344
13	0x3d6a1d49	0.057156835
14	0xbcb7ca81	-0.022435429
15	0xbd0df626	-0.034658574
16	0xbbcd22c7	-0.0062602493
17	0xbd3fcf6f	-0.046828683
18	0x3d38bcd2	0.045101948
19	0xbd9cc6c0	-0.07655096
20	0x3d158906	0.03650763
21	0x3d9f83a1	0.07788778
22	0xbd5f0c9b	-0.05445538
23	0xbc954e50	-0.018225819
24	0x3d2cfd6f	0.04223388
25	0xbd325644	-0.0435393
26	0x3d9c62f7	0.076360635
27	0x3bca448e	0.006172723
28	0xbd9a6ae7	-0.07539921
29	0xbd1e6921	-0.038674477
30	0xbd7ebcb6	-0.062191688
31	0xbda596de	-0.08085416

appear_backbone.conv.4.weight f4 [96, 32, 3, 3]
0	0xbd692419	-0.05691919
1	0x3d6986d3	0.057013344
2	0x3cc3ad10	0.023886234
3	0x3d5c257b	0.05374668
4	0x3d503ad9	0.05083737
5	0x3d2c7dcb	0.042112153
6	0x3b2c5c1c	0.0026300019
7	0x3d0d8fc8	0.03456095
8	0x3c82e051	0.015976103
9	0x3cf11e42	0.029433373
10	0xbc821d51	-0.01588312
11	0xbcc0d6c2	-0.023539905
12	0xbd4921d3	-0.049104523
13	0xbbbc9ea4	-0.005756216
14	0x3ce3dde4	0.027815767
15	0xbc2886d4	-0.010286052
16	0xbcef539c	-0.029214673
17	0x3d6b14be	0.05739283
18	0xbd6670b3	-0.056259822
19	0xbc4ce754	-0.012506325
20	0xbd21ef0f	-0.039534625
21	0xbc42007b	-0.011840935
22	0xbd43cdc5	-0.04780366
23	0xbd0bd7f2	-0.03414149
24	0x3c292e25	0.010325943
25	0x3bfaf7cd	0.0076589347
26	0xbc0b69ab	-0.00850908
27	0xbd75416d	-0.059876848
28	0x3d37749d	0.044788945
29	0x3d5cc874	0.053902104
30	0x3a440cef	0.0007478734
31	0x3c582a8f	0.0131937405
32	0xbcac86c1	-0.02106035
33	0xbc796890	-0.015222684
34	0x3bcfd5db	0.006342632
35	0xbd1f1740	-0.038840532
36	0x3b618c75	0.0034415994
37	0x3cf61686	0.030040037
38	0xbc702333	-0.01465683
39	0xbd57be83	-0.05267192
40	0x3d54e2d8	0.051974148
41	0x3c7a4cc4	0.015277091
42	0x3a2aa981	0.00065102434
43	0x3cd9c2a9	0.026582079
44	0x3c7b58eb	0.015341024
45	0x3d5d1ec1	0.053984407
46	0xbd076ba9	-0.033061657
47	0x3d5b5660	0.05354917
48	0xbc16cad1	-0.009203629
49	0xbb794aaa	-0.0038038888
50	0x3d47e49f	0.048802014
51	0xbcaea793	-0.02132014
52	0xbcc3001f	-0.023803769
53	0xbd67d13e	-0.056596033
54	0xba9f137a	-0.0012136542
55	0xbc8dbc3d	-0.017301673
56	0x3bf22e66	0.007390785
57	0xbd1ad288	-0.037798434
58	0xbc3c0b56	-0.011477312
59	0xbba97869	-0.0051718247
60	0xbd47c758	-0.048774093
61	0x3a5bf4b8	0.0008390653
62	0x3d15532c	0.036456272
63	0xbcf32eac	-0.02968534
64	0x3c9fc247	0.019501818
65	0x3c56820e	0.013092531
66	0x3d003805	0.031303424
67	0xbd3a6574	-0.04550691
68	0x3d5efdeb	0.054441374
69	0xbcbeb936	-0.023281675
70	0x3c685e30	0.014182612
71	0xbcd442b7	-0.025910718
72	0xbd132959	-0.035928104
73	0x3cd1b046	0.025596749
74	0x3d660fc2	0.05616737
75	0x3d42d532	0.0475666
76	0xbc162ef3	-0.009166467
77	0x3c8f9181	0.017525436
78	0x3d62d6ab	0.055380505
79	0xbd235c81	-0.03988314
80	0x3ceb1971	0.028698655
81	0xbc6c7f46	-0.014434641
82	0x3d1d1f25	0.03835978
83	0x3c09d2fd	0.00841212
84	0x3c2a8d26	0.010409629
85	0x3c856285	0.01628233
86	0xbd3dc329	-0.046328697
87	0x3c818ba5	0.015813658
88	0xbd3f238d	-0.046664763
89	0x3cbca0e6	0.023025941
90	0x3caf793d	0.021420116
91	0xbba89fb6	-0.005145992
92	0xbd55be72	-0.052183576
93	0x3d2545be	0.040349714
94	0x3d5ca35f	0.05386674
95	0x3d3da2f5	0.046297986
96	0xbcd6171f	-0.026134072
97	0xbd6620cf	-0.056183632
98	0x3cc36b2c	0.023854814
99	0xbd6f74fb	-0.05846117
100	0x3c90a3a7	0.01765616
101	0xbc9903ce	-0.018678572
102	0xbd49d207	-0.049272563
103	0xbc4d89e9	-0.012545087
104	0x3bcdd153	0.006281057
105	0x3c7149ed	0.014727098
106	0x3c1cbb45	0.009566133
107	0x3cddaf22	0.027061049
108	0xbc4c8518	-0.012482904
109	0x3ba9fe2e	0.0051877713
110	0xbcea8450	-0.028627545
111	0xbd4c309a	-0.049851038
112	0x3b92ff24	0.0044859815
113	0xbc81683d	-0.015796775
114	0xbd0255e7	-0.031820204
115	0xbce274a6	-0.027643513
116	0xbd134197	-0.035951223
117	0x3c503e7c	0.01271021
118	0x3c33a88b	0.010965477
119	0xbd15fbc8	-0.03661707
120	0x3cf927f5	0.03041456
121	0x3cf251f0	0.029580086
122	0xbc102fae	-0.00880043
123	0xbd41247b	-0.04715393
124	0xbd4a3816	-0.049369894
125	0xbd647fc8	-0.055785924
126	0x3c63aba7	0.013895906
127	0x3bbf1093	0.005830833
128	0xbccc5db7	-0.02494703
129	0xbd610b94	-0.054942682
130	0xbd54d55d	-0.05196129
131	0x3d5b1af0	0.053492486
132	0x3ad048dd	0.0015890856
133	0x3ce92b55	0.028463045
134	0x3cbc24d4	0.02296678
135	0xbc81ab50	-0.015828758
136	0xbccae7a0	-0.02476865
137	0xbbd60632	-0.0065315003
138	0xbcc89377	-0.02448438
139	0xbb6c2505	-0.0036032808
140	0x3c845579	0.016154038
141	0xbd11b212	-0.03557021
142	0xb93b6dc9	-0.00017874608
143	0x3ce68dc2	0.028143767
144	0x3c8d1103	0.017220026
145	0xbc913ac4	-0.017728217
146	0x3c790c49	0.015200683
147	0xbd2342ed	-0.039858747
148	0xbd60f12d	-0.054917503
149	0xbd0b278d	-0.033973265
150	0xbcea6662	-0.028613273
151	0x3d535e0a	0.051603355
152	0x3d444bc2	0.04792381
153	0xbc611296	-0.013737341
154	0x3d1d383a	0.0383837
155	0x3d323f91	0.043517653
156	0x3cc6561d	0.024210984
157	0x3d1ba093	0.037994932
158	0x3a8f9964	0.0010955748
159	0xbd3005e3	-0.042974364
160	0xbceaa648	-0.028643742
161	0x3ca94549	0.02066292
162	0x3cb41d26	0.021986555
163	0xbc3b9b24	-0.011450563
164	0x3d19db37	0.037562575
165	0xbd2bbed5	-0.04193004
166	0x3d58eb6c	0.05295889
167	0x3b803dd0	0.0039136186
168	0x3cb6c2b5	0.02230964
169	0x3ca906da	0.02063315
170	0xb9a7f04d	-0.0003203176
171	0x3be04ffd	0.006845473
172	0x3c7108b7	0.01471155
173	0x3d447ddf	0.047971603
174	0xbd4df265	-0.050279994
175	0xbadb5a28	-0.0016735243
176	0x3d1dd460	0.038532615
177	0xbc837895	-0.016048709
178	0xbd2b02bf	-0.041750666
179	0x3cafcd45	0.021460185
180	0xbab2cbe5	-0.0013641088
181	0xbd36e362	-0.044650443
182	0xbcec00c3	-0.028808957
183	0xba24bcc7	-0.00062842335
184	0xbc672c47	-0.014109678
185	0x3bc62625	0.0060470277
186	0x3d1ba8f6	0.03800293
187	0x3d1cd61d	0.03829013
188	0xbc0a81af	-0.008453771
189	0xbd5d17db	-0.05397783
190	0x3c695836	0.0142422225
191	0x3d48f5b3	0.049062442
192	0xbd0656f1	-0.032797758
193	0xbcc0ca37	-0.023533924
194	0xbd449267	-0.047991183
195	0x3d65e4dd	0.056126464
196	0x3c7d755f	0.015469878
197	0x3cbe7e8a	0.023253698
198	0x3d61b31d	0.055102456
199	0x3b273b9b	0.0025517705
200	0x3d516743	0.05112387
201	0xbc804097	-0.015655799
202	0xbd139855	-0.036033947
203	0x3c4554d1	0.012044148
204	0xbc4af6b9	-0.012387925
205	0x3d0485d2	0.032354183
206	0x3c3b5414	0.01143362
207	0x3bfd7ef7	0.0077360827
208	0xbd427ef8	-0.047484368
209	0xbcabd423	-0.020975178
210	0x3d335218	0.043779463
211	0x3d035d30	0.032071292
212	0x3d6059c5	0.05477311
213	0xbd043a7b	-0.032282334
214	0x3b193f52	0.002338369
215	0xbd3fee7d	-0.0468583
216	0xbd4c3d73	-0.04986329
217	0x3d4a259a	0.049352266
218	0x3d100f04	0.03517057
219	0x3d5b1241	0.053484205
220	0x3c878cec	0.016546689
221	0x3cb4c516	0.022066634
222	0x3d37d658	0.04488215
223	0x3cbbcc79	0.022924649
224	0xbc7c87c8	-0.015413232
225	0xbd27d60c	-0.040975615
226	0x3d69d7d0	0.05709058
227	0x3cdfb516	0.027308028
228	0x3d0e87eb	0.03479759
229	0xbc1cf869	-0.00958071
230	0xbd5736c7	-0.052542474
231	0x390d7ee3	0.00013494077
232	0x3d51f3c1	0.051257852
233	0x3d09a86f	0.033607896
234	0x3d696fe1	0.05699146
235	0xbcfe2a12	-0.03102592
236	0x3d22e7de	0.039771907
237	0x3d14defb	0.036345463
238	0xbd198c13	-0.0374871
239	0xbc966b4d	-0.018361712
240	0xbcf97546	-0.030451428
241	0x3cc4c466	0.024019431
242	0x3c121060	0.008915037
243	0x3c9219d0	0.017834574
244	0x3c426990	0.011865988
245	0x3c4f30a8	0.012645878
246	0xbd3528c9	-0.04422835
247	0xbccd1623	-0.02503497
248	0xbd52938f	-0.051410254
249	0x3b225be9	0.002477402
250	0xbd292387	-0.041293647
251	0xbb5f1b6d	-0.0034043447
252	0x3cff9a3b	0.031201473
253	0xbcee1939	-0.029064761
254	0xbd36aebc	-0.044600233
255	0xbc9c77cd	-0.019100094

appear_backbone.conv.4.bias f4 [96]
0	0x3d267c63	0.04064597
1	0xbd42bc49	-0.047542844
2	0xbcb1abda	-0.02168839
3	0x3d2012e6	0.039080523
4	0xbc4b51e8	-0.012409665
5	0xbcb0c9f0	-0.021580666
6	0xbb791922	-0.0038009365
7	0xbc994402	-0.018709186
8	0xbd29d8ca	-0.04146651
9	0x3bfccb91	0.0077146967
10	0xbc4b2ecb	-0.012401293
11	0xbcfd99db	-0.030957153
12	0xbbf8e16b	-0.0075952313
13	0x3d2697e9	0.040672217
14	0xbcd5510a	-0.026039619
15	0x3ce2a5e1	0.027666988
16	0xbc817624	-0.015803404
17	0x3d38716b	0.04503004
18	0xbd564f4b	-0.052321713
19	0xbc82ae14	-0.015952148
20	0x3c8ec48d	0.017427707
21	0x3cbfa8a0	0.023395836
22	0x39259542	0.00015791229
23	0x3d59ebf9	0.053203557
24	0xbd07fbb3	-0.033199023
25	0x3b8fc66b	0.004387667
26	0xbcd0be69	-0.02548142
27	0x3cb018c7	0.02149619
28	0xbd382f9c	-0.04496728
29	0xbd68824c	-0.056764886
30	0x3bc7e8b1	0.006100737
31	0x3b6517c2	0.0034956788
32	0x3d2f69e0	0.04282558
33	0x3d32bd7a	0.04363773
34	0xbcd50706	-0.026004326
35	0x3b9252b2	0.0044654245
36	0x3d5f8257	0.05456766
37	0x3ceb0850	0.028690487
38	0xbccc6365	-0.024949739
39	0xbd2e5348	-0.042559892
40	0xbd08e505	-0.033421535
41	0xbc86c24c	-0.01645007
42	0x3c5e7fac	0.013580244
43	0x3cc3b5bc	0.023890369
44	0x3d60a2b5	0.05484267
45	0x3b7e4a73	0.00388017
46	0x3cb026ee	0.021502938
47	0xbd0329b3	-0.03202219
48	0x3ce04611	0.02737716
49	0x3a4f6153	0.0007910926
50	0xbba474f4	-0.0050188247
51	0x3bf26a67	0.007397938
52	0xbcf98841	-0.030460479
53	0xbc85c491	-0.016329082
54	0x3a275720	0.0006383527
55	0x3bb8e1fb	0.0056421733
56	0x3c3b6bd7	0.011439285
57	0x3d57f2d4	0.052721813
58	0x3d637169	0.05552808
59	0xbd33502b	-0.043777626
60	0x3d09277f	0.033484932
61	0xbd387993	-0.045037817
62	0x3c0eb3d9	0.008709871
63	0xbd13eebe	-0.036116354
64	0x3c29d9ec	0.010366898
65	0x3d32dc08	0.04366687
66	0xbd09ccba	-0.033642508
67	0x3ca9d095	0.020729342
68	0xbcb968d0	-0.022632986
69	0x3d351fd7	0.044219818
70	0x3d17bfdc	0.037048206
71	0x3c407bbd	0.0117482515
72	0xbce10fc6	-0.027473342
73	0xbd0f57ad	-0.034995724
74	0x3b3c5627	0.0028737874
75	0xbca77f21	-0.020446362
76	0xbd4d6e09	-0.050153766
77	0x3be96400	0.0071225166
78	0xbcc0ac29	-0.023519592
79	0x3cb72386	0.022355806
80	0xbd12e54f	-0.035863217
81	0x3d5b1103	0.05348302
82	0x3d73c4d9	0.0595139
83	0x3d1a28c3	0.03763653
84	0x3ce5733e	0.028009053
85	0x3d07c8cf	0.03315049
86	0x3b0d55b5	0.0021565978
87	0xbd1378e8	-0.036003977
88	0xbd5e4c5b	-0.054272037
89	0xbd4d9e3b	-0.05019973
90	0x3d38114b	0.044938367
91	0x3d2dd969	0.042443667
92	0xbb216db9	-0.002463205
93	0x3d43cc4d	0.04780226
94	0xbc0af9c4	-0.0084824
95	0x3c4aa987	0.01236952

transformer.rel_dir_mlp.0.weight f4 [32, 3]
0	0x3f038fba	0.51391184
1	0x3e978bc9	0.29598835
2	0xbc7b8865	-0.015352343
3	0x3e04fb2d	0.12986441
4	0xbe5e4cfc	-0.21709055
5	0xbca01cd3	-0.019544994
6	0x3e91d81e	0.28485197
7	0x3f01b979	0.50673634
8	0xbea798e7	-0.32733843
9	0x3e8f2c08	0.2796328
10	0xbe3dd464	-0.18538052
11	0xbe1fb59e	-0.15596625
12	0xbed8e225	-0.42360035
13	0x3ebea5cd	0.3723587
14	0x3f08a1a9	0.53371674
15	0xbe827758	-0.25481677
16	0x3eb34872	0.3501621
17	0xbe9d1c4b	-0.30685648
18	0x3e9efbd1	0.31051496
19	0xbf0c0d56	-0.5470785
20	0xbef3a6ff	-0.47588345
21	0xbed53054	-0.41638434
22	0x3e02a6f8	0.12759006
23	0x3d9d1af8	0.076711595
24	0xbdefa5dc	-0.11701557
25	0xbdaa2294	-0.083073765
26	0x3ead2d9a	0.33823854
27	0x3f110ce9	0.56660324
28	0x3e3d487a	0.18484679
29	0x3e006bd8	0.12541139
30	0xbf09acf5	-0.53779536
31	0x3e240954	0.16019183
32	0x3ef79851	0.48358396
33	0x3f00cf8b	0.50316685
34	0x3e1c2d33	0.15251617
35	0x3eae7990	0.3407712
36	0xbed88ad7	-0.42293426
37	0xbea40f7e	-0.3204307
38	0x3ec9a80e	0.39386028
39	0x3ed93e0d	0.42430153
40	0xbe0efbe9	-0.13963284
41	0x3ecc5349	0.39907292
42	0x3e9b7306	0.30361193
43	0xbe5f30a2	-0.21795896
44	0x3f1132dd	0.56718236
45	0x3ea9bdf1	0.33152726
46	0xbeaf73ed	-0.34268132
47	0xbda1761c	-0.07883856
48	0x3f12f11d	0.5739916
49	0x3eb542bc	0.35402477
50	0xbdf56554	-0.119822174
51	0xbdd897f3	-0.10575857
52	0x3e218002	0.15771487
53	0xbf00303f	-0.5007362
54	0x3eba07a8	0.36333966
55	0x3e9aa3ca	0.30203086
56	0x3c6ac3eb	0.014328937
57	0x3efba3b7	0.49148342
58	0x3df093b3	0.117469214
59	0x3e6dd58f	0.23225997
60	0x3db211d5	0.086948074
61	0x3e112019	0.141724
62	0x3e1045eb	0.14089172
63	0xbd438b10	-0.047740042
64	0xbde61094	-0.11233631
65	0xbeb4caf5	-0.35311094
66	0x3e408ae0	0.18802977
67	0x3e3441b6	0.17603192
68	0x3ee70859	0.45123556
69	0x3e1bfdc4	0.15233523
70	0x3e318dbc	0.17339224
71	0x3e2c8d38	0.16850746
72	0x3d423861	0.04741705
73	0xbe91a31a	-0.2844475
74	0xbe8db07b	-0.27673706
75	0x3ef8a117	0.48560402
76	0x3ed97fff	0.42480466
77	0xbed7e299	-0.42165068
78	0x3e3f1e17	0.18663822
79	0xbefe3dfb	-0.49656662
80	0xbeeaa20a	-0.4582675
81	0x3ed8e2aa	0.4236043
82	0x3d13ce0c	0.036085173
83	0xbe6de4c6	-0.23231801
84	0x3f035267	0.5129761
85	0x3ee7e849	0.45294407
86	0xbeec60e9	-0.46167687
87	0xbedfc556	-0.43705243
88	0xbe0b5551	-0.13606764
89	0x3e31eccc	0.17375487
90	0xbdcb1c75	-0.09917537
91	0xbea395a8	-0.31950116
92	0x3d2a454d	0.041569997
93	0x3ee7f472	0.45303684
94	0x3d885531	0.06656874
95	0xbf0f7849	-0.56042916

transformer.rel_dir_mlp.0.bias f4 [32]
0	0x3da2a236	0.079410955
1	0xbd81daa4	-0.063405305
2	0xbe182fe7	-0.14862023
3	0xbf080fd8	-0.53149176
4	0x3e8051c8	0.25062394
5	0xbe86d0c0	-0.2633114
6	0xbec2c95d	-0.38044253
7	0xbee58606	-0.44828814
8	0xbf113cd4	-0.5673344
9	0xbe7b0242	-0.2451258
10	0xbd55dc16	-0.052211843
11	0x3efff469	0.49991158
12	0xbea37366	-0.3192398
13	0x3e795b1d	0.24351163
14	0xbd9ce584	-0.07660964
15	0x3ea5763c	0.32316768
16	0x3d8f03a6	0.06983118
17	0x3efe0b0a	0.49617797
18	0xbd97d3bc	-0.07413432
19	0xbe59cffe	-0.21270749
20	0x3cebfa8b	0.028805992
21	0xbec75cee	-0.38938087
22	0xbe36be81	-0.17846109
23	0xbeac1151	-0.3360696
24	0xbe157768	-0.14596331
25	0xbde3e1e0	-0.111270666
26	0x3f024efc	0.5090177
27	0x3e2b55fd	0.1673202
28	0x3e644a9a	0.22294083
29	0x3de5b5ac	0.11216292
30	0xbe82cfb2	-0.25549084
31	0xbf0f71aa	-0.5603281

transformer.rel_dir_mlp.2.weight f4 [2, 32]
0	0xbd7517a8	-0.059837013
1	0x3dec5987	0.115405135
2	0x3d4c44ed	0.04987042
3	0xbd733366	-0.05937519
4	0xbd93bbfe	-0.07213591
5	0xbca2acf0	-0.019857854
6	0xbc2203ec	-0.00988863
7	0xbd6bb40a	-0.057544746
8	0xbdbcb4d8	-0.09214181
9	0x3d4c93b1	0.049945537
10	0xbda87250	-0.082249284
11	0x3e22c80f	0.15896629
12	0x3db2680f	0.08711254
13	0x3e0416dd	0.12899347
14	0xbe0f00c5	-0.13965137
15	0x3d10b40d	0.03532796
16	0x3c969637	0.018382175
17	0xbd473a17	-0.048639383
18	0x3dd03047	0.10165458
19	0xbda100f0	-0.07861507
20	0x3e0742cb	0.13209073
21	0xbe1e5ccc	-0.15465087
22	0xbe04ad56	-0.12956747
23	0x3da37a7e	0.07982348
24	0xbd25b49c	-0.040455446
25	0x3cb2a1ab	0.021805605
26	0xbce80719	-0.028323697
27	0xbd5d81ec	-0.05407898
28	0xbe108e28	-0.14116728
29	0x3d31ce1d	0.043409456
30	0x3d132e0f	0.035932597
31	0xbc8ecddb	-0.017432144
32	0xbc13d578	-0.009023063
33	0xbd5b6b5d	-0.053569186
34	0x3d5c2f3d	0.053755987
35	0x3e099453	0.13435487
36	0xbc38cd83	-0.011279467
37	0xbe037bf1	-0.12840249
38	0x3da4998f	0.080371015
39	0x3db0c44e	0.08631192
40	0x3dceb0aa	0.1009229
41	0x3e1be448	0.15223801
42	0xbe2d1787	-0.16903506
43	0x3dfe5f41	0.12420512
44	0x3ceacdea	0.02866264
45	0xbcdd17bf	-0.026988862
46	0x3e2a686e	0.166414
47	0x3dff5802	0.12467958
48	0x3caaff6d	0.02087375
49	0x3e1f46ca	0.15554348
50	0x3db9d37a	0.09073539
51	0xbd624cc4	-0.05524899
52	0x3d77a453	0.060459446
53	0x3de03f86	0.10949616
54	0xbdb4416a	-0.08801539
55	0xbde91e7d	-0.11382768
56	0xbcbb433c	-0.022859208
57	0xbca819a7	-0.020520044
58	0x3d7aadc7	0.061200883
59	0x3e0f7a5e	0.14011523
60	0x3d408595	0.047002394
61	0x3e023303	0.12714772
62	0xbd1fc84d	-0.03900938
63	0x3df2ee0a	0.118618086

transformer.rel_dir_mlp.2.bias f4 [2]
0	0x3dab5879	0.08366484
1	0xbd841423	-0.06449153
